RL/policy.pth (torch, 49327 bytes, 12 tensors)

log_std f4 [3]
-1.1433929 -1.2133853 -1.2385367
00000000: b35a 92bf 3650 9bbf 5f88 9ebf

mlp_extractor.policy_net.0.weight f4 [64, 19]
-0.085172035 0.030032266 0.1084713 -0.29630038 0.27869272 0.23272972 0.0224588 0.02803527
0.05952552 0.06936423 0.09087264 0.13522238 -0.20240118 0.18559335 0.24047393 -0.031207673
-0.042503275 -0.15303299 0.07977982 0.2688601 -0.10966104 0.061465308 -0.41644824 0.116986476
0.30870315 0.03144779 -0.23237604 0.23344453 -0.09177677 -0.025129879 -0.026923535 0.15016876
-0.3302277 -0.14017026 -0.13428488 -0.12839662 -0.3774839 -0.061098635 0.01769041 0.08517452
-0.10163076 -0.26015347 -0.14623109 -0.39875442 -0.21580029 -0.124405175 -0.046675283 -0.16615987
0.3758099 0.4008533 0.098335065 -0.073014446 -0.21521266 -0.026821245 0.22190672 -0.010642662
0.0073492797 -0.09271322 -0.019842362 -0.15884042 0.08421925 0.14774394 -0.32792106 -0.14043416
0.06176973 -0.22988814 0.24496908 -0.024280522 -0.2915972 0.08172098 -0.1578071 -0.1740924
0.044016067 0.29666954 -0.17549549 -0.21067557 -0.4768651 0.021844098 0.3121473 -0.30745086
-0.05924623 0.22647655 -0.08387515 0.28981906 -0.19319443 -0.14332563 0.11152744 -0.037048295
0.009215125 0.027630547 0.08134755 -0.18925165 0.15593925 -0.029581025 -0.027028855 -0.34462345
0.012162437 -0.39034942 0.005939256 -0.03805367 0.0008932719 0.07952589 -0.0321175 0.22846143
0.00019586457 0.09180439 -0.105164655 -0.030478003 0.30447146 0.27809817 0.30612516 0.13682126
-0.09173687 0.086435765 0.0744974 -0.08630554 -0.43686736 -0.051694956 -0.14506896 0.4516363
-0.0988978 -0.16490133 -0.19327879 -0.06674315 -0.11102072 -0.115356304 -0.2104827 -0.14043312
0.10812129 -0.06693119 0.19100903 0.203878 0.08232318 -0.11218322 0.061153002 0.3873065
0.14467442 -0.13481686 0.34890482 0.20016079 -0.2760413 -0.119725846 -0.06814552 0.24470177
0.17501424 0.07417528 -0.038821377 -0.09736034 0.22809093 0.13878308 -0.14309663 0.052228674
-0.14286862 -0.15990052 0.1931889 -0.018997159 0.22157057 -0.1840857 0.15241785 -0.12061447
-0.033095982 -0.14418174 0.055081077 0.040533997 -0.07385725 -0.033255924 0.26491067 -0.27520016
0.27498427 0.071334295 0.0026477396 -0.21211375 0.23269834 0.061319727 0.07578859 -0.10656156
0.32425755 -0.005831903 0.17255093 -0.13096628 -0.0122149885 0.02505068 -0.4416191 0.34787294
0.05085849 -0.10055915 0.14178886 0.0009978878 0.088391505 -0.19406585 -0.008985709 -0.24245602
-0.27805358 0.11492846 0.17526099 -0.090741396 0.1944095 0.03552315 -0.011877402 -0.49407443
-0.21749587 -0.07192698 0.10426072 -0.042315666 0.012523763 0.46796358 -0.0072553684 -0.3176689
-0.028261436 0.16864516 -0.20834887 -0.09782199 -0.082431674 0.12747294 -0.0016913945 0.2857549
-0.1394027 0.18966961 0.06866518 0.02623773 -0.12707809 -0.098923646 0.045486785 -0.0471805
-0.21789946 0.30989093 0.44267315 0.04847832 0.3823054 0.030021759 -0.10382363 0.018436082
0.09622851 0.17165373 0.09386327 0.15307137 -0.41230744 0.5056207 -0.11834092 0.027282802
0.20756151 0.08550589 -0.07392196 -0.15948696 0.20630273 -0.09938534 -0.10985496 -0.08393452
0.3834608 -0.17860268 0.03225979 -0.1208348 -0.017408676 -0.100589156 -0.13350303 0.18236828
00000000: ad6e aebd 3a06 f63c 3326 de3d afb4 97be
00000010: d0b0 8e3e b350 6e3e 84fb b73c 39aa e53c
00000020: 08d1 733d d50e 8e3d 6f1b ba3d bc77 0a3e
00000030: 4142 4fbe 2f0c 3e3e cc3e 763e 3ca7 ffbc
00000040: ea17 2ebd aeb4 1cbe 9a63 a33d 08a8 893e
00000050: f895 e0bd 0cc3 7b3d b438 d5be 9b96 ef3d
00000060: 570e 9e3e 66cf 003d fcf3 6dbe 150c 6f3e
00000070: 76f5 bbbd 2ddd cdbc bf8e dcbc d7c5 193e
00000080: 9b13 a9be cb88 0fbe fa81 09be 677a 03be
00000090: 9245 c1be 9042 7abd 7beb 903c fb6f ae3d
000000a0: ca23 d0bd d632 85be 9abd 15be 8a29 ccbe
000000b0: c0fa 5cbe 24c8 febd 952e 3fbd d025 2abe
000000c0: 286a c03e a53c cd3e e563 c93d 9988 95bd
000000d0: b560 5cbe 3ab8 dbbc 843b 633e 8f5e 2ebc
000000e0: 3ad2 f03b 6ee0 bdbd 738c a2bc 10a7 22be
000000f0: 247b ac3d 304a 173e 45e5 a7be f9cd 0fbe
00000100: 4202 7d3d cc67 6bbe 2dd9 7a3e f2e7 c6bc
00000110: 3a4c 95be 545d a73d 2f98 21be 4745 32be
00000120: 314a 343d 12e5 973e 17b5 33be 56bb 57be
00000130: aa27 f4be 65f2 b23c c5d1 9f3e 336a 9dbe
00000140: 2dac 72bd 78e9 673e bcc6 abbd 2a63 943e
00000150: c3d4 45be f4c3 12be 8068 e43d f4bf 17bd
00000160: 09fb 163c 7559 e23c 8b99 a63d 2fcb 41be
00000170: 8aae 1f3e e853 f2bc 9e6b ddbc 7c72 b0be
00000180: f544 473c e1db c7be 179e c23b 2ade 1bbd
00000190: 762a 6a3a 78de a23d a48d 03bd cbf1 693e
000001a0: ff60 4d39 f103 bc3d 9160 d7bd 01ad f9bc
000001b0: afe3 9b3e e262 8e3e 70bc 9c3e df1a 0c3e
000001c0: 8ae0 bbbd 3c05 b13d 1892 983d f5c0 b0bd
000001d0: 14ad dfbe 17be 53bd f58c 14be e03c e73e
000001e0: ee8a cabd e5db 28be e0ea 45be a2b0 88bd
000001f0: d55e e3bd ed3f ecbd c788 57be b3cd 0fbe
00000200: b26e dd3d 3813 89bd df97 433e 65c5 503e
00000210: 0e99 a83d 51c0 e5bd 927b 7a3d 0a4d c63e
00000220: 8825 143e 6e0d 0abe a7a3 b23e f3f6 4c3e
00000230: 4955 8dbe d332 f5bd e18f 8bbd 1a93 7a3e
00000240: ef36 333e 36e9 973d 2a03 1fbd dc64 c7bd
00000250: ab90 693e 271d 0e3e ec87 12be bced 553d
00000260: 274c 12be f6bc 23be 50d3 453e ee9f 9bbc
00000270: 65e3 623e f680 3cbe 6d13 1c3e b804 f7bd
00000280: a78f 07bd 61a4 13be b29c 613d fa06 263d
00000290: 7842 97bd 5d37 08bd 5fa2 873e 09e7 8cbe
000002a0: bdca 8c3e b717 923d b385 2d3b 5934 59be
000002b0: 7948 6e3e 652a 7b3d 0c37 9b3d f23c dabd
000002c0: 1605 a63e 8c19 bfbb 31b1 303e 061c 06be
000002d0: 6021 48bc 1537 cd3c e61b e2be 671c b23e
000002e0: fe50 503d f5f1 cdbd 1931 113e 8fcb 823a
000002f0: 9b06 b53d 33b9 46be cc38 13bc 6446 78be
00000300: 0a5d 8ebe 9d5f eb3d 9e77 333e a0d6 b9bd
00000310: 4913 473e b980 113d 6f99 42bc 53f7 fcbe
00000320: 3db7 5ebe 744e 93bd a586 d53d 3153 2dbd
00000330: 7830 4d3c ec98 ef3e 71be edbb 80a5 a2be
00000340: 8784 e7bc 51b1 2c3e 6859 55be e556 c8bd
00000350: f0d1 a8bd 4488 023e c8b1 ddba 774e 923e
00000360: 95bf 0ebe c038 423e 54a0 8c3d 82f0 d63c
00000370: c220 02be 7b98 cabd 5a50 3a3d 5740 41bd
00000380: 0921 5fbe 06aa 9e3e 0ea6 e23e 3491 463d
00000390: 89bd c33e 31f0 f53c 7ca1 d4bd 4407 973c
000003a0: 7413 c53d ffc5 2f3e 633b c03d bebe 1c3e
000003b0: f619 d3be 5c70 013f b95c f2bd 2f80 df3c
000003c0: 018b 543e b61d af3d 6664 97bd 8d50 23be
000003d0: 0641 533e 8b8a cbbd a3fb e0bd dde5 abbd
000003e0: f954 c43e 9fe3 36be d722 043d 3c78 f7bd
000003f0: a49c 8ebc b001 cebd 05b5 08be c0be 3a3e

mlp_extractor.policy_net.0.bias f4 [64]
0.051114127 0.052318774 -0.050523374 -0.053136338 0.004598441 -0.024483282 0.052532837 0.024115767
-0.053776395 0.05126864 -0.05227995 -0.053294912 0.017246082 0.048653238 -0.048365667 0.040283233
0.052523743 -0.050505165 -0.05214098 0.052924424 0.01240093 0.048609015 -0.051954053 0.025302837
0.048982207 0.050131448 -0.050539497 -0.038913712 -0.051317584 -0.044043344 0.053182684 0.035642132
-0.052369744 0.0492485 -0.046665438 0.048992064 -0.02703855 -0.042917293 -0.052868836 0.050629135
0.051704794 0.05028091 0.053370032 0.04835291 0.053354334 -0.04977893 0.05398413 -0.05208458
-0.051422603 -0.04699285 0.046448126 -0.05067628 -0.05282949 0.04975052 0.048166383 -0.050481576
0.053092204 0.04247122 0.049765524 -0.05063957 0.04963784 0.043093935 -0.05352363 -0.05191646
00000000: 0c5d 513d 364c 563d 99f1 4ebd 7da5 59bd
00000010: 85ae 963b 2a91 c8bc ac2c 573d 6e8e c53c
00000020: a344 5cbd 11ff 513d 8023 56bd c44b 5abd
00000030: a847 8d3c 9e48 473d 141b 46bd 0800 253d
00000040: 2323 573d 81de 4ebd c891 55bd 48c7 583d
00000050: 452d 4b3c 3f1a 473d c6cd 54bd e547 cf3c
00000060: 91a1 483d a256 4d3d 8102 4fbd fc63 1fbd
00000070: 6332 52bd cb66 34bd 16d6 593d 7cfd 113d
00000080: a881 56bd ccb8 493d 4224 3fbd e7ab 483d
00000090: f37f ddbc 0bca 2fbd fe8c 58bd 7f60 4f3d
000000a0: 68c8 533d 5bf3 4d3d 899a 5a3d b30d 463d
000000b0: 138a 5a3d fee4 4bbd 771e 5d3d a456 55bd
000000c0: 82a0 52bd 937b 40bd 6440 3e3d ee91 4fbd
000000d0: bc63 58bd 34c7 4b3d 1d4a 453d c5c5 4ebd
000000e0: 3677 593d 4df6 2d3d efd6 4b3d 706b 4fbd
000000f0: 0c51 4b3d 4483 303d 983b 5bbd 5ba6 54bd

mlp_extractor.policy_net.2.weight f4 [64, 64]
0.19655234 -0.22729631 0.12400315 -0.020448817 0.098330505 0.035124388 0.224786 -0.062505476
0.08157293 0.14257522 0.2063371 0.03905007 -0.25815004 -0.26553062 0.17953116 -0.14605728
-0.012031546 -0.12857653 0.15145703 -0.23085111 0.05839166 -0.34155682 0.12606028 0.13956611
-0.057073638 0.14059423 0.21777974 0.27252692 0.14798872 0.0746781 -0.20284945 -0.44350454
0.19752046 0.19769679 0.05497847 -0.17336668 0.20730998 -0.12799422 0.21090451 -0.25410733
-0.12177873 0.1477593 -0.015680002 0.014067195 0.15831853 -0.27767316 -0.22107928 0.3055307
-0.055300444 0.043133948 -0.18889791 0.25475127 -0.3602627 -0.018243909 -0.26747456 0.008836587
-0.20291989 -0.12507649 0.16924834 -0.32775566 -0.13398598 0.037504673 0.0499483 0.12838191
-0.35384366 -0.005512727 0.061769597 0.4013052 0.054535143 0.056101922 -0.2215579 -0.1945438
0.45027867 -0.061690196 -0.008240387 0.13353491 0.065629624 -0.2533413 -0.0003208207 -0.07276273
0.18250687 0.033643067 0.2734764 -0.089372225 -0.29264918 0.0797829 -0.22714551 0.082145475
-0.040422637 -0.24646398 0.060513046 0.10213907 0.11250402 0.09176996 -0.19854654 0.00965002
0.4579233 -0.14211859 0.1346203 -0.17891666 -0.23119658 0.18079834 0.2270561 0.10132543
-0.11321304 0.1629594 -0.41660276 -0.23709425 0.3900515 -0.055552494 -0.046651956 0.037651613
-0.10088949 0.18761821 -0.17177472 -0.04545507 0.26467583 -0.12189826 0.034433465 0.031141942
-0.07991424 0.021854028 0.14631534 -0.07711414 0.22244635 0.25393152 -0.106203355 0.13551803
-0.021550858 -0.013205032 -0.32285592 0.050446108 -0.17058109 -0.06411855 -0.1454398 0.1160673
-0.05575134 0.102572694 -0.10960761 -0.0413435 0.22618134 -0.043712545 0.18258083 -0.13345045
0.051464185 -0.014007903 -0.010032552 -0.0067873998 0.23616767 0.21724057 0.044414755 -0.19964662
0.33180618 0.086228326 0.03250024 0.108644284 -0.13619557 0.31265616 -0.021884223 -0.011329977
-0.20385517 -0.005454778 0.130181 0.35996374 0.06459739 -0.12997377 -0.0058458177 0.10708604
0.16133721 -0.19345275 -0.042799402 0.13181561 -0.03947905 -0.15551083 0.15169583 0.0064170207
-0.3148637 -0.18999366 -0.26376975 -0.022188151 -0.16448297 -0.2209677 0.017768294 -0.36022818
0.027868234 -0.050343525 0.08736258 -0.33869395 0.5262293 -0.13152312 -0.11081031 -0.562138
-0.06506307 0.110386685 0.30243525 -0.15247731 -0.11001918 -0.056023262 -0.15073761 -0.13668613
-0.042202592 0.23811835 -0.28125447 -0.098335594 0.11007502 0.49449334 0.28524718 0.26427063
0.06946335 -0.25876358 -0.10254324 0.064165056 -0.02282301 -0.1965739 -0.19521444 -0.31791317
0.31297374 0.030951265 -0.28604794 -0.18073516 0.25422484 -0.024853477 0.24391575 -0.11669832
-0.007764728 0.04790211 -0.3210983 -0.15818822 -0.2689735 -0.100282796 0.13364999 -0.07288044
0.3681647 0.14466378 0.029128026 0.12615933 0.04458641 -0.0052430076 0.29279405 -0.028756568
-0.0010472571 0.03114508 0.066347 0.31320235 -0.19455832 0.121033065 0.058562238 -0.17134067
0.15314864 -0.23377489 0.17280398 -0.07500883 0.21955854 0.17541875 0.09560077 -0.046047952
00000000: 0445 493e 5dc0 68be 5df5 fd3d 4784 a7bc
00000010: 8161 c93d 97de 0f3d 4d2e 663e df02 80bd
00000020: b50f a73d 3dff 113e 084a 533e f7f2 1f3d
00000030: 3e2c 84be a1f3 87be 04d7 373e 0a90 15be
00000040: f61f 45bc 91a9 03be 8d17 1b3e 3c64 6cbe
00000050: 182c 6f3d 89e0 aebe f215 013e 6bea 0e3e
00000060: 0cc6 69bd eff7 0f3e a701 5f3e a688 8b3e
00000070: 5b8a 173e d5f0 983d c4b7 4fbe 0713 e3be
00000080: ce42 4a3e 0771 4a3e 1b31 613d 0987 31be
00000090: 1149 543e eb10 03be 5af7 573e 5b1a 82be
000000a0: 2067 f9bd 374e 173e 5973 80bc 187a 663c
000000b0: 411e 223e 2d2b 8ebe 9b62 62be 856e 9c3e
000000c0: b882 62bd 39ad 303d 746e 41be c26e 823e
000000d0: 5a74 b8be 4074 95bc 6df2 88be 55c7 103c
000000e0: 3bca 4fbe 0d14 00be 704f 2d3e 97cf a7be
000000f0: 9f33 09be 809e 193d 9796 4c3d 8c76 033e
00000100: ff2a b5be 1ba4 b4bb 1e02 7d3d e077 cd3e
00000110: 3e60 5f3d 21cb 653d 13e0 62be 7d36 47be
00000120: ed8a e63e dcae 7cbd b002 07bc 60bd 083e
00000130: d368 863d f3b5 81be d333 a8b9 a004 95bd
00000140: 15e3 3a3e 50cd 093d 1905 8c3e c908 b7bd
00000150: 1dd6 95be 3865 a33d d598 68be e33b a83d
00000160: 3592 25bd 0e61 7cbe 87dc 773d 4a2e d13d
00000170: 8268 e63d e4f1 bb3d c94f 4bbe 1e1b 1e3c
00000180: ec74 ea3e 8987 11be e7d9 093e ee35 37be
00000190: ccbe 6cbe 3323 393e 6581 683e b583 cf3d
000001a0: 3ddc e7bd d4de 263e f54c d5be d6c8 72be
000001b0: d5b4 c73e 038b 63bd 1f16 3fbd 9438 1a3d
000001c0: 269f cebd fd1e 403e b6e5 2fbe 182f 3abd
000001d0: 9783 873e cca5 f9bd 1b0a 0d3d 631d ff3c
000001e0: 14aa a3bd 3807 b33c b0d3 153e 05ee 9dbd
000001f0: fac8 633e 5003 823e 2581 d9bd 3dc5 0a3e
00000200: 6d8b b0bc eb59 58bc 5f4d a5be 94a0 4e3d
00000210: cfac 2ebe 9650 83bd 2cee 14be b1b4 ed3d
00000220: 845b 64bd a211 d23d f479 e0bd cd57 29bd
00000230: 159c 673e ed0b 33bd 78f6 3a3e 3ca7 08be
00000240: 1ccc 523d 6781 65bc 935f 24bc d668 debb
00000250: f0d5 713e 5074 5e3e 3fec 353d 2a70 4cbe
00000260: 80e2 a93e 7a98 b03d f91e 053d e580 de3d
00000270: da76 0bbe 7814 a03e 8b46 b3bc 5ea1 39bc
00000280: 69bf 50be ffbd b2bb 2b4e 053e 2b4d b83e
00000290: a34b 843d d817 05be 468e bfbb ed4f db3d
000002a0: 9535 253e 7a18 46be 6d4e 2fbd acfa 063e
000002b0: c9b4 21bd 3b3e 1fbe 2756 1b3e df45 d23b
000002c0: d135 a1be b38d 42be d40c 87be edc3 b5bc
000002d0: 396e 28be 5b45 62be d08e 913c d46f b8be
000002e0: ec4b e43c 0335 4ebd 27eb b23d 4b69 adbe
000002f0: f7b6 063f ffad 06be 84f0 e2bd 47e8 0fbf
00000300: c93f 85bd 6a12 e23d cbd8 9a3e 0323 1cbe
00000310: bc51 e1bd a678 65bd f65a 1abe 73f7 0bbe
00000320: a0dc 2cbd 4cd5 733e 9600 90be 2c64 c9bd
00000330: 036f e13d 3b2e fd3e eb0b 923e 7b4e 873e
00000340: cd42 8e3d a97c 84be 3102 d2bd f868 833d
00000350: 52f7 babc ab4a 49be 4be6 47be 84c5 a2be
00000360: 183e a03e 828d fd3c e074 92be a312 39be
00000370: c229 823e 8599 cbbc 0dc5 793e 87ff eebd
00000380: 426f febb 0135 443d ff66 a4be 18fc 21be
00000390: e5b6 89be 1161 cdbd 8bdb 083e 5742 95bd
000003a0: 1580 bc3e be22 143e e69d ee3c e92f 013e
000003b0: 3da0 363d 89cd abbb 1ae9 953e e592 ebbc
000003c0: 1e44 89ba f823 ff3c f0e0 873d 0f5c a03e
000003d0: 4c3a 47be 2fe0 f73d f5de 6f3d ee73 2fbe
000003e0: ffd2 1c3e af62 6fbe 87f3 303e 3b9e 99bd
000003f0: f4d3 603e f9a0 333e 56ca c33d c79c 3cbd

mlp_extractor.policy_net.2.bias f4 [64]
-0.052778833 -0.057607558 0.05488206 0.053998925 -0.045866076 -0.053903285 0.05484008 0.055466063
-0.05192575 0.055456046 0.055333138 0.05240659 -0.055292584 -0.052593175 0.056013726 0.054317817
0.05567181 0.05487129 -0.054477934 0.05770211 0.053665232 -0.0027662446 0.052978612 -0.053523723
-0.053597473 -0.055720016 -0.05787865 -0.052493658 0.05591731 -0.05537426 -0.04981453 0.056012116
0.05724864 -0.056961842 -0.047479026 0.053794343 -0.055660788 -0.053551923 0.055880602 0.054402053
-0.054533485 0.050841667 0.052767 0.05513471 0.050495446 0.054334566 0.054114357 0.05065079
-0.054339755 -0.056683335 0.054439247 0.052279815 0.052199777 0.056175012 0.049454615 0.055093784
0.055730484 -0.057450466 -0.05576188 0.05009106 0.054898173 -0.05638412 0.056640055 0.049258374
00000000: 9e2e 58bd e7f5 6bbd 03cc 603d fa2d 5d3d
00000010: 11de 3bbd b1c9 5cbd fe9f 603d 6230 633d
00000020: 18b0 54bd e125 633d 00a5 623d 4ba8 563d
00000030: 7a7a 62bd f16b 57bd a66e 653d 5c7c 5e3d
00000040: 2008 643d b8c0 603d 4124 5fbd 0c59 6c3d
00000050: 13d0 5b3d e249 35bb 1a00 593d b13b 5bbd
00000060: 0689 5bbd ac3a 64bd 2a12 6dbd 9703 57bd
00000070: 8d09 653d 1fd0 62bd 520a 4cbd f66c 653d
00000080: 8d7d 6a3d d250 69bd 5e79 42bd 7557 5c3d
00000090: 91fc 63bd 4359 5bbd 0fe3 643d b0d4 5e3d
000000a0: 815e 5fbd 5a3f 503d 3622 583d efd4 613d
000000b0: 50d4 4e3d ec8d 5e3d 04a7 5d3d 3477 4f3d
000000c0: 5d93 5ebd c92c 68bd b0fb 5e3d 5c23 563d
000000d0: 6fcf 553d c517 663d ec90 4a3d 05aa 613d
000000e0: a645 643d 2e51 6bbd 9266 64bd 492c 4d3d
000000f0: e8dc 603d 09f3 66bd 67ff 673d 26c3 493d

mlp_extractor.value_net.0.weight f4 [64, 19]
0.25301814 -0.19436084 0.03199256 -0.1306601 -0.13487598 -0.21122684 0.052699525 -0.065661915
0.32691714 -0.118814416 -0.14258282 -0.026884982 0.06013133 -0.040825825 -0.21104115 -0.16809428
-0.54776335 0.22883764 -0.087463595 0.17751312 -0.10170069 0.11032883 0.12446848 -0.14359
-0.42302307 0.06812256 -0.020347824 0.03265657 0.299766 0.27338946 -0.103293315 -0.08497495
0.19933964 0.5304699 -0.21564005 0.021297667 0.17880756 -0.045526516 -0.28962874 -0.0021324442
0.17658219 0.00291576 -0.030768903 -0.09035024 0.0964008 0.1560623 -0.28693777 0.17439146
-0.2965089 -0.16111349 0.20733698 0.3530356 -0.08017945 0.039174724 -0.034760166 0.06950641
0.11473956 0.041978918 -0.010050615 0.101369895 -0.046986196 -0.16649787 -0.112402566 -0.0347003
-0.21413893 0.16440448 -0.14326158 0.0881852 -0.23171666 -0.21051922 0.17440343 0.0012707033
-0.31147134 0.027227415 0.11542712 -0.3455153 -0.043364495 -0.0017099913 -0.027200371 0.058590047
-0.086331084 0.07964025 0.30076492 0.018707281 -0.02978617 0.0632726 0.20131737 0.031652972
-0.22672829 -0.30641645 -0.27437323 -0.17714219 0.2075062 0.30300888 0.14848208 -0.07415353
-0.09544057 -0.061515465 0.35318837 -0.11400574 0.061764665 0.19409224 0.17267945 0.1309906
-0.2812987 0.039113622 -0.263772 0.19561808 0.25596106 -0.19755536 0.09623985 0.08119861
0.040797368 0.2858876 -0.119688205 0.050664753 0.1837685 0.014259539 0.12708034 0.21438211
0.040230494 0.22703888 0.14196432 0.42855942 0.20196481 0.03081198 0.09085345 -0.03347577
0.072217025 -0.23593467 -0.26556027 -0.21019983 0.09359013 0.022490975 -0.2578955 -0.13209829
-0.17974707 0.17603229 0.14567387 0.005903772 -0.12957656 0.14165613 0.1597158 0.023545848
-0.1506263 -0.26696572 0.11413422 -0.092188664 0.13317199 0.06364072 0.117714405 -0.32178038
-0.021479376 -0.16883706 -0.14309265 0.03724707 0.368876 -0.08381199 0.11407642 -0.06392399
0.00440971 -0.012574851 -0.28579912 0.00078561244 -0.037930354 -0.15425384 0.23417564 0.048388332
-0.0253831 -0.047784675 -0.026876187 0.09395575 0.3939282 0.16307949 -0.042625125 0.051897008
-0.1247681 0.02443613 0.2487674 -0.115123756 0.121573985 -0.1339638 -0.25233203 0.15957728
-0.057641182 -0.081658244 -0.054812383 0.00052628614 -0.27260646 -0.07042602 0.04833218 -0.06422735
0.3276682 0.39174408 -0.13855395 0.065342285 0.115514666 -0.23000042 0.009967735 0.040342927
0.010804613 -0.22336927 0.0022764576 0.20188148 0.010658758 0.4131346 -0.1295599 -0.18736497
-0.20627944 -0.24491778 -0.2582514 -0.061996497 0.27950162 0.2526389 0.068384826 -0.032798614
0.15402967 0.045107342 0.19287983 0.23234658 -0.04481342 -0.28967437 0.10233797 -0.14689939
0.29452753 0.17721753 0.046543922 -0.0073496047 -0.048202503 -0.0051890123 -0.019655453 -0.1085187
0.42544246 -0.34135896 -0.07637999 0.2627732 0.100857206 -0.010774488 0.15903616 -0.31278455
-0.34886524 0.08444337 0.013321594 -0.18208669 0.007331521 -0.32926854 0.22290905 -0.06404197
0.264532 -0.33741677 0.040580302 -0.16847864 0.059874196 -0.016231729 -0.11205364 0.080707334
00000000: 988b 813e 8706 47be a10a 033d c3cb 05be
00000010: ee1c 0abe d94b 58be 75db 573d c179 86bd
00000020: af61 a73e f954 f3bd 3b01 12be e53d dcbc
00000030: 454c 763d fb38 27bd 2c1b 58be e820 2cbe
00000040: 383a 0cbf 6a54 6a3e 1d20 b3bd 00c6 353e
00000050: 7448 d0bd 15f4 e13d 55e9 fe3d 4209 13be
00000060: 7b96 d8be d783 8b3d 7bb0 a6bc e5c2 053d
00000070: ee7a 993e b4f9 8b3e 728b d3bd 5907 aebd
00000080: b11f 4c3e e0cc 073f bfd0 5cbe 7278 ae3c
00000090: 5419 373e 037a 3abd 384a 94be 7ac0 0bbb
000000a0: f6d1 343e 5616 3f3b 110f fcbc 8c09 b9bd
000000b0: c86d c53d ccce 1f3e 82e9 92be ad93 323e
000000c0: 04d0 97be effa 24be 2550 543e 15c1 b43e
000000d0: 2035 a4bd ad75 203d ad60 0ebd 6059 8e3d
000000e0: 93fc ea3d 16f2 2b3d 56ab 24bc 059b cf3d
000000f0: 9974 40bd 6b7e 2abe 5133 e6bd e721 0ebd
00000100: 3c47 5bbe a659 283e 2ab3 12be 719a b43d
00000110: 2247 6dbe 5a92 57be d096 323e ba8d a63a
00000120: 2c79 9fbe 070c df3c 0e65 ec3d 62e7 b0be
00000130: f89e 31bd c921 e0ba 50d3 debc 1efc 6f3d
00000140: 5ace b0bd 6d1a a33d dcfd 993e 0340 993c
00000150: 2002 f4bc 1195 813d 2426 4e3e 8ca6 013d
00000160: 762b 68be 9ee2 9cbe a67a 8cbe c364 35be
00000170: 817c 543e fb23 9b3e b00b 183e cedd 97bd
00000180: 5876 c3bd a4f7 7bbd 1bd5 b43e d77b e9bd
00000190: f2fc 7c3d 1ec0 463e e2d2 303e 6622 063e
000001a0: 6206 90be 9b35 203d 200d 87be 1b50 483e
000001b0: 540d 833e f44b 4abe 6619 c53d 754b a63d
000001c0: 241b 273d dc5f 923e 171f f5bd d885 4f3d
000001d0: cf2d 3c3e d7a0 693c 5921 023e fc86 5b3e
000001e0: bbc8 243d e17c 683e 185f 113e 246c db3e
000001f0: ddcf 4e3e 6869 fc3c 6011 ba3d e41d 09bd
00000200: 85e6 933d dc98 71be 84f7 87be a03e 57be
00000210: 2fac bf3d fe3e b83c e10a 84be c644 07be
00000220: 9e0f 38be cf41 343e 882b 153e 6e74 c13b
00000230: b8af 04be 4e0e 113e 8a8c 233e 39e3 c03c
00000240: c83d 1abe bbaf 88be 34bf e93d 69cd bcbd
00000250: 3d5e 083e 1156 823d 4014 f13d 66c0 a4be
00000260: 84f5 afbc 9fe3 2cbe e186 12be 6290 183d
00000270: 51dd bc3e 9fa5 abbd e6a0 e93d 95ea 82bd
00000280: 547f 903b bf06 4ebc 4354 92be 8ff1 4d3a
00000290: dc5c 1bbd b8f4 1dbe bdcb 6f3e d832 463d
000002a0: 38f0 cfbc ddb9 43bd 732b dcbc df6b c03d
000002b0: f5b0 c93e 4ffe 263e af97 2ebd f591 543d
000002c0: 6b86 ffbd 472e c83c e2bc 7e3e 01c6 ebbd
000002d0: c8fb f83d ce2d 09be aa31 81be 3a68 233e
000002e0: 2919 6cbd 703c a7bd f382 60bd 77f6 093a
000002f0: 1393 8bbe 843b 90bd f7f7 453d a189 83bd
00000300: 20c4 a73e ae92 c83e 16e1 0dbe 2dd2 853d
00000310: f492 ec3d 3b85 6bbe b64f 233c a03e 253d
00000320: d505 313c eaba 64be 9f30 153b 05ba 4e3e
00000330: 12a2 2e3c 6186 d33e 5aab 04be 9adc 3fbe
00000340: eb3a 53be bacb 7abe 8739 84be 0af0 7dbd
00000350: d61a 8f3e e359 813e 580d 8c3d d757 06bd
00000360: f4b9 1d3e 7ac2 383d 4a82 453e 43ec 6d3e
00000370: 478e 37bd 3350 94be 9296 d13d cb6c 16be
00000380: 50cc 963e 8378 353e d7a4 3e3d f4d4 f0bb
00000390: fd6f 45bd 9708 aabb 7904 a1bc 0d3f debd
000003a0: 98d3 d93e 9ac6 aebe 1d6d 9cbd 358a 863e
000003b0: 398e ce3d 7a87 30bc 60da 223e 4c25 a0be
000003c0: 779e b2be a5f0 ac3d d142 5a3c ef74 3abe
000003d0: 413d f03b e395 a8be 4542 643e 7028 83bd
000003e0: bd70 873e e4c1 acbe 8837 263d aa85 2cbe
000003f0: a53e 753d 67f8 84bc 617c e5bd e349 a53d

mlp_extractor.value_net.0.bias f4 [64]
0.0065330234 0.0015615441 0.030843675 0.0043535708 0.01152113 0.0020836797 -0.028017411 -0.0013849621
0.0049026925 0.0031170188 0.0041659772 -0.004483245 0.0024307373 -0.0022658994 -0.00083518284 -0.0035541945
0.0018380438 0.0025103088 -0.0003447369 -0.0038490708 -0.0011590143 0.0066910745 -0.0022205869 0.005567251
-0.0014106045 0.003497858 -0.0034056618 -0.006276523 -0.0007220404 -0.026551574 -0.007449506 -0.021422066
0.0011339914 0.0011099163 0.00698245 0.0031823437 -0.0045109387 0.015237353 0.0012324195 0.001190801
-0.009556687 0.0025689357 -0.0016504372 -0.0043602195 0.003007505 0.0046696584 -0.004346056 -0.0014367064
-0.0011776179 0.0050698766 0.0019416646 0.029245224 -0.0010003796 -0.001086781 0.031797346 0.00401246
-0.0011948197 -0.0013300107 0.0022529822 0.0038228023 -0.007171646 -0.0019523684 -0.02038353 0.03305546
00000000: f912 d63b baac cc3a e0ab fc3c 66a8 8e3b
00000010: 1fc3 3c3c 588e 083b c584 e5bc 9e87 b5ba
00000020: c4a6 a03b e646 4c3b c082 883b 2fe8 92bb
00000030: 014d 1f3b 7c7f 14bb 2cf0 5aba 7ded 68bb
00000040: 84ea f03a fe83 243b cebd b4b9 b140 7cbb
00000050: 11ea 97ba cd40 db3b 4487 11bb 7c6d b63b
00000060: 08e4 b8ba 523c 653b 8631 5fbb 4bab cdbb
00000070: 5047 3dba b082 d9bc fc1a f4bb 547d afbc
00000080: 70a2 943a 9c7a 913a 09cd e43b de8e 503b
00000090: 7fd0 93bb 17a6 793c 2389 a13a a714 9c3a
000000a0: a793 1cbc 975b 283b 7c53 d8ba 2ce0 8ebb
000000b0: 9019 453b ef03 993b 5c69 8ebb de4f bcba
000000c0: 4d5a 9aba 3521 a63b 747f fe3a ae93 ef3c
000000d0: 2b1f 83ba 5272 8eba ef3d 023d f47a 833b
000000e0: 7f9b 9cba c153 aeba c5a6 133b fb87 7a3b
000000f0: 2100 ebbb 9de6 ffba 5cfb a6bc 2965 073d

mlp_extractor.value_net.2.weight f4 [64, 64]
-0.18876857 0.25494578 0.19147246 0.3472455 0.005095828 -0.011124691 -0.066656515 -0.08187329
-0.32208052 0.21752204 -0.093766116 0.12616563 -0.12113808 -0.19396888 0.16749236 -0.117651
-0.20007558 -0.04019589 -0.07489926 0.13593803 0.16464224 0.07446423 0.30874422 -0.28599823
-0.07960939 0.23558351 -0.25994766 -0.010472576 0.059322003 0.079222254 -0.14707994 0.21366936
-0.1310819 0.18576871 0.21188685 -0.048287787 0.13638234 0.13671467 0.025762232 -0.14333948
0.1951843 0.15447278 -0.22377571 -0.01630944 -0.03282188 0.17450014 -0.042988416 -0.22026092
-0.3258939 0.17148441 -0.1904959 0.38509452 0.0650545 -0.05705956 0.039473366 0.08367775
0.065958686 0.45165378 0.0426692 -0.17145361 -0.16363074 -0.022953136 -0.13852759 -0.058077857
-0.20024355 -0.16773124 -0.13166514 -0.21097206 0.07616614 0.016493263 -0.11567145 0.35327768
-0.050216004 -0.022034131 -0.06706999 0.0895431 -0.11768891 -0.12590964 -0.025053889 0.056373566
-0.22294913 0.10626677 -0.3149556 -0.24864486 -0.05751217 0.08155964 0.15584706 0.42356074
-0.00592652 0.18182784 0.1965727 -0.022218939 0.28153065 0.29387513 -0.09965378 -0.022066629
-0.012597012 0.0051612165 -0.025805172 -0.47154588 0.0034589877 -0.016856281 -0.040819354 -0.032256536
0.17757876 -0.005159809 -0.47446495 0.14182001 -0.15715513 -0.2093485 0.10300536 -0.053708993
0.15122356 0.08248742 0.102563895 0.009545135 0.3221146 0.05623626 -0.16942728 0.06584769
0.028033024 0.04259822 0.26654437 0.26461637 -0.11573952 -0.07170669 0.21002468 0.16269733
-0.34314823 -0.08307994 -0.023427425 -0.2999759 -0.29238054 -0.018472536 -0.13084033 -0.17470093
-0.05786975 0.25419706 -0.083741255 0.1921484 0.3968985 -0.096671954 -0.046638533 -0.21326882
0.055194855 -0.05358109 0.19354574 0.4364741 0.12657961 0.2701404 -0.2312579 0.26563874
0.3866446 -0.21231513 0.20359026 -0.20133738 -0.044454996 -0.06661587 -0.2662661 -0.14428477
0.05882966 0.31406805 0.1516526 -0.12786005 -0.14909415 0.0875135 0.28591466 -0.020981902
-0.14275235 0.10739382 0.0042360276 -0.11358307 -0.033286635 -0.13303365 -0.06468835 -0.2718182
-0.034993164 -0.0057372563 -0.022536669 0.06693501 -0.12719207 0.111199476 -0.14184238 -0.124602586
-0.007359366 0.03202069 0.114939384 0.029209005 -0.04134978 0.12149324 -0.02202311 -0.029610725
-0.04252423 -0.011751444 0.16882661 0.029672904 -0.30972645 -0.0618205 -0.05376263 -0.09945542
0.15746291 0.13507411 -0.053615876 0.3363943 0.142482 0.1867254 0.25094768 -0.08975555
-0.18968496 -0.3343166 -0.30967253 -0.12978286 -0.090442024 0.10453812 0.17951714 -0.21117221
-0.03231398 0.023271216 0.107142255 0.18455033 0.031080313 0.25337934 -0.09409105 0.07780332
0.030494343 -0.41211146 -0.06385331 -0.1619526 -0.038990278 0.24618663 0.25496364 -0.2670332
-0.07022155 0.25294942 0.075721174 -0.15925178 0.19954616 0.017656423 0.09328014 0.14087501
0.018238962 -0.09229301 0.059063263 -0.48321983 -0.13482453 -0.25354403 -0.047166146 0.0409231
-0.20743732 -0.20254089 0.18759033 -0.13559924 -0.16449697 -0.0051335525 -0.12844308 -0.059451047
00000000: 8c4c 41be 4188 823e 5b11 443e 2aca b13e
00000010: e7fa a63b 5644 36bc 3683 88bd 2fad a7bd
00000020: bde7 a4be 19be 5e3e 7308 c0bd 9031 013e
00000030: 3e17 f8bd c79f 46be 1e83 2b3e 02f3 f0bd
00000040: 9de0 4cbe 72a4 24bd c964 99bd 5733 0b3e
00000050: fa97 283e b480 983d b913 9e3e 5c6e 92be
00000060: 3f0a a3bd ce3c 713e dc17 85be 2b95 2bbc
00000070: a1fb 723d 473f a23d 209c 16be 24cc 5a3e
00000080: 553a 06be 273a 3e3e def8 583e 6ac9 45bd
00000090: d0a7 0b3e eefe 0b3e 510b d33c 96c7 12be
000000a0: 65de 473e 1d2e 1e3e 7625 65be 609b 85bc
000000b0: 3c70 06bd 2ab0 323e 9f14 30bd 148c 61be
000000c0: 91db a6be 9c99 2f3e 5b11 43be 1c2b c53e
000000d0: 4b3b 853d 49b7 69bd d3ae 213d 3d5f ab3d
000000e0: 5915 873d 2a3f e73e e6c5 2e3d 8991 2fbe
000000f0: d18e 27be 3708 bcbc 2dda 0dbe 0ce3 6dbd
00000100: a50c 4dbe bdc1 2bbe 3ad3 06be 0f09 58be
00000110: fefc 9b3d e11c 873c 27e5 ecbd d0e0 b43e
00000120: 4caf 4dbd ec80 b4bc fe5b 89bd 5f62 b73d
00000130: e206 f1bd 75ee 00be d03d cdbc f8e7 663d
00000140: c74c 64be 64a2 d93d dc41 a1be c29c 7ebe
00000150: e291 6bbd be08 a73d 5f96 1f3e f4dc d83e
00000160: 4133 c2bb 1431 3a3e 5b4a 493e 7e04 b6bc
00000170: c924 903e cd76 963e 4817 ccbd 13c5 b4bc
00000180: b363 4ebc 6c1f a93b 5e65 d3bc 766e f1be
00000190: 2fb0 623b 2f16 8abc 3232 27bd 6e1f 04bd
000001a0: 35d7 353e 9d13 a9bb 12ed f2be 4439 113e
000001b0: 46ed 20be 745f 56be 79f4 d23d f6fd 5bbd
000001c0: 59da 1a3e 2aef a83d 050d d23d 3363 1c3c
000001d0: 34ec a43e fe57 663d 587e 2dbe 27db 863d
000001e0: 83a5 e53c 797b 2e3d 8178 883e cc7b 873e
000001f0: d708 edbd f5da 92bd b610 573e 219a 263e
00000200: 20b1 afbe d125 aabd dfea bfbc 7196 99be
00000210: e7b2 95be b753 97bc 02fb 05be cde4 32be
00000220: d508 6dbd 1e26 823e 8980 abbd 8dc2 443e
00000230: 4836 cb3e f2fb c5bd 0c08 3fbd 2463 5abe
00000240: 0014 623d d877 5bbd db30 463e 8979 df3e
00000250: 169e 013e d84f 8a3e dfce 6cbe cd01 883e
00000260: 48f6 c53e 2369 59be f779 503e 632b 4ebe
00000270: 7116 36bd e76d 88bd 0854 88be 63bf 13be
00000280: 5ff7 703d 87cd a03e d24a 1b3e bfed 02be
00000290: 23ac 18be 473a b33d 6863 923e 3de2 abbc
000002a0: ac2d 12be 4bf1 db3d 60ce 8a3b 3e9e e8bd
000002b0: 9157 08bd f939 08be 537b 84bd c12b 8bbe
000002c0: fe54 0fbd 98ff bbbb d29e b8bc 3915 893d
000002d0: a33e 02be 8dbc e33d 213f 11be a42f ffbd
000002e0: d626 f1bb 2128 033d 5765 eb3d b947 ef3c
000002f0: 635e 29bd 73d1 f83d cf69 b4bc 3192 f2bc
00000300: e32d 2ebd 2189 40bc e2e0 2c3e 9714 f33c
00000310: 7794 9ebe 7e37 7dbd 3436 5cbd 49af cbbd
00000320: f53d 213e de50 0a3e 529c 5bbd e03b ac3e
00000330: cde6 113e f134 3f3e 377c 803e c2d1 b7bd
00000340: c63c 42be 8c2b abbe 668d 9ebe cce5 04be
00000350: ab39 b9bd 1518 d63d 57d3 373e 873d 58be
00000360: aa5b 04bd 47a3 be3c 666d db3d c3fa 3c3e
00000370: 249c fe3c f0ba 813e cfb2 c0bd 5957 9f3d
00000380: 46cf f93c 4600 d3be 86c5 82bd e7d6 25be
00000390: 45b4 1fbd 5918 7c3e 988a 823e 93b8 88be
000003a0: 51d0 8fbd 9682 813e b413 9b3d e612 23be
000003b0: d455 4c3e 34a4 903c a809 bf3d 8a41 103e
000003c0: e069 953c 1e04 bdbd 52ec 713d 9768 f7be
000003d0: 710f 0abe 86d0 81be 4a31 41bd fb9e 273d
000003e0: 736a 54be e166 4fbe ae17 403e 87da 0abe
000003f0: e571 28be 5c37 a8bb 9586 03be f182 73bd

mlp_extractor.value_net.2.bias f4 [64]
0.00073565444 -0.0006394587 -0.000492209 -0.0077451444 0.0011182316 -0.00025972273 -0.00070900883 -0.00096063985
0.00025582532 0.00020630252 -0.0007545774 -8.044803e-05 -0.00044010088 0.0030556011 0.0018504496 -0.0042048013
-9.931695e-05 -1.9195944e-05 -0.00046474364 -0.0024754417 0.00024428326 0.00015865584 0.00076862436 0.0008244591
-0.0067412937 -0.002623265 -0.0005095707 0.00015139543 0.0012286175 0.00077826675 0.0003143409 -3.150874e-05
0.0008104002 -0.000634377 -0.0008569104 -0.0020861542 2.593578e-05 0.00017354134 0.00067242613 -0.0011936974
-0.0015285243 -0.0010892296 0.0005603845 -0.00047782407 0.00047686475 -9.7997225e-05 -0.00023405123 -0.00068530574
-0.000513764 -0.008670491 -0.0018512206 0.00773793 6.1286555e-05 -0.0019464325 -0.0020128833 -0.0013257277
0.0012531767 -0.00040132512 0.00028634595 0.0009748781 0.0052072066 0.0007959538 0.00462151 0.0013066477
00000000: efd8 403a 59a1 27ba 9607 01ba fbca fdbb
00000010: a091 923a 652b 88b9 c7dc 39ba 73d3 7bba
00000020: 4b20 8639 e952 5839 d5ce 45ba 35b6 a8b8
00000030: 57bd e6b9 7b40 483b c98a f23a 6ec8 89bb
00000040: 6248 d0b8 fa06 a1b7 d6a8 f3b9 053b 22bb
00000050: 2513 8039 da5c 2639 827d 493a 8320 583a
00000060: 12e6 dcbb 15eb 2bbb b694 05ba e7bf 1e39
00000070: 9009 a13a 9904 4c3a 1fce a439 4128 04b8
00000080: 0971 543a 524c 26ba 49a2 60ba dcb7 08bb
00000090: aa90 d937 a6f8 3539 c145 303a d775 9cba
000000a0: c458 c8ba 7bc4 8eba c4e6 123a 7684 fab9
000000b0: b403 fa39 dc83 cdb8 a66b 75b9 17a6 33ba
000000c0: 1eae 06ba ad0e 0ebc a8a4 f2ba 768e fd3b
000000d0: f886 8038 701f ffba 94ea 03bb 0ac4 adba
000000e0: a241 a43a f268 d2b9 b420 9639 f68e 7f3a
000000f0: 37a1 aa3b 8ea7 503a 0970 973b d243 ab3a

action_net.weight f4 [3, 64]
-0.037736755 -0.0417735 0.038759016 0.03784646 -0.0389297 -0.038184952 0.03750901 0.039445356
-0.03597616 0.03815401 0.038432818 0.037569843 -0.03961958 -0.03841102 0.037488688 0.03903774
0.037631515 0.04066617 -0.038115684 0.03954 0.03801347 2.6736088e-05 0.039371487 -0.038138118
-0.039469182 -0.039890684 -0.040023234 -0.036929045 0.038611647 -0.038315207 -0.03703072 0.03895736
0.04053539 -0.039749525 -0.03604766 0.03755303 -0.040172283 -0.037905347 0.039769787 0.039404213
-0.039805375 0.037646625 0.038220458 0.036716733 0.036907647 0.038200628 0.038770642 0.03995804
-0.039732188 -0.038340136 0.038680885 0.040764388 0.039607838 0.03968395 0.037706487 0.040498998
0.037646912 -0.03846373 -0.039265614 0.037643515 0.03897796 -0.039785188 0.040101036 0.039757982
-0.040300526 -0.039668415 0.038981322 0.036444988 -0.0350309 -0.03938793 0.039734274 0.035615034
-0.03712608 0.037808385 0.040457815 0.03684244 -0.0395476 -0.03676637 0.038348217 0.038339935
0.03693135 0.03766411 -0.04220203 0.041868784 0.035351224 8.159025e-05 0.034512743 -0.04124375
-0.03693152 -0.03782235 -0.038025532 -0.036919575 0.04012514 -0.036479622 -0.036672994 0.036156096
0.03880794 -0.035969045 -0.0361704 0.03390994 -0.035394225 -0.037324797 0.03702061 0.038049277
-0.038914427 0.03329761 0.034760915 0.036413066 0.03829485 0.03937608 0.035801407 0.03550857
-0.036401376 -0.036652457 0.038953226 0.03561267 0.03555148 0.038439862 0.038901012 0.041981403
0.037629116 -0.03600575 -0.03877108 0.035170414 0.036686633 -0.03430663 0.04116677 0.03991293
-0.04086408 -0.038153924 0.03781015 0.03778139 -0.032851063 -0.037702583 0.040116932 0.036307473
-0.03474648 0.037171524 0.039061137 0.037910603 -0.037619665 -0.036522847 0.036815874 0.037183944
0.036225602 0.038530402 -0.03941227 0.040905032 0.03638955 -2.0640835e-05 0.03424659 -0.040945705
-0.03960825 -0.03790389 -0.038139686 -0.038243685 0.03892961 -0.037075784 -0.03743578 0.03684024
0.039357223 -0.037047263 -0.035127312 0.036880165 -0.037254002 -0.03647779 0.038804382 0.037729785
-0.040184565 0.034678284 0.03499499 0.038693264 0.04132008 0.03925468 0.036412258 0.03548021
-0.03719877 -0.039425295 0.040666804 0.036625694 0.035173144 0.038537465 0.03700637 0.03866711
0.036166705 -0.035805047 -0.036848977 0.03420022 0.03725452 -0.037600596 0.04106386 0.036061108
00000000: db91 1abd b11a 2bbd c6c1 1e3d e404 1b3d
00000010: c074 1fbd d367 1cbd 0ca3 193d 7491 213d
00000020: bd5b 13bd 6147 1c3d bb6b 1d3d d6e2 193d
00000030: 2448 22bd e054 1dbd bd8d 193d 0ae6 1f3d
00000040: 8123 1a3d 9291 263d 311f 1cbd b2f4 213d
00000050: 03b4 1b3d 5047 e037 ff43 213d b736 1cbd
00000060: 70aa 21bd 6a64 23bd 67ef 23bd e942 17bd
00000070: 3f27 1e3d 68f0 1cbd 86ad 17bd c191 1f3d
00000080: 7008 263d 66d0 22bd b6a6 13bd 35d1 193d
00000090: b18b 24bd a342 1bbd a5e5 223d 5066 213d
000000a0: f60a 23bd 5933 1a3d 0e8d 1c3d 4964 163d
000000b0: 792c 173d 4378 1c3d f7cd 1e3d 0bab 233d
000000c0: 38be 22bd 8c0a 1dbd d96f 1e3d 8ff8 263d
000000d0: d43b 223d a38b 223d 1e72 1a3d 47e2 253d
000000e0: a633 1a3d 258c 1dbd fbd4 20bd 1630 1a3d
000000f0: 5aa7 1f3d cbf5 22bd fc40 243d 44d9 223d
00000100: 2a12 25bd 597b 22bd e1aa 1f3d 5747 153d
00000110: 907c 0fbd 3d55 21bd 68c0 223d 12e1 113d
00000120: 8411 18bd f7dc 1a3d 18b7 253d 19e8 163d
00000130: aafc 21bd 5598 16bd 0513 1d3d 560a 1d3d
00000140: 5445 173d af45 1a3d 09dc 2cbd 9a7e 2b3d
00000150: 72cc 103d 6f1b ab38 3c5d 0d3d 35ef 28bd
00000160: 8145 17bd 9ceb 1abd a9c0 1bbd fb38 17bd
00000170: 425a 243d a86b 15bd 6c36 16bd 6a18 143d
00000180: 13f5 1e3d 4754 13bd 6a27 14bd 26e5 0a3d
00000190: 89f9 10bd e3e1 18bd eca2 173d 8fd9 1b3d
000001a0: bc64 1fbd 1363 083d 7661 0e3d de25 153d
000001b0: 10db 1c3d d048 213d 7fa4 123d 6f71 113d
000001c0: 9c19 15bd e320 16bd 6b8d 1f3d 97de 113d
000001d0: 6e9e 113d 1e73 1d3d ab56 1f3d b1f4 2b3d
000001e0: fd20 1a3d c47a 13bd 6dce 1ebd da0e 103d
000001f0: b944 163d 1c85 0cbd 7d9e 283d be7b 233d
00000200: 1861 27bd 4a47 1cbd d1de 1a3d a9c0 1a3d
00000210: d68e 06bd 066e 1abd a751 243d 25b7 143d
00000220: 5352 0ebd 2b41 183d 92fe 1f3d 2648 1b3d
00000230: 1417 1abd fb98 15bd 3ecc 163d 314e 183d
00000240: 4c61 143d 0ed2 1d3d c36e 21bd 098c 273d
00000250: 350d 153d db25 adb7 2746 0c3d afb6 27bd
00000260: 433c 22bd 1c41 1bbd 5c38 1cbd 69a5 1cbd
00000270: a874 1f3d c7dc 17bd 4356 19bd cbe5 163d
00000280: 0a35 213d dfbe 17bd a8e1 0fbd a80f 173d
00000290: a797 18bd bc69 15bd 58f1 1e3d 8c8a 1a3d
000002a0: 9298 24bd d10a 0e3d e856 0f3d d47c 1e3d
000002b0: 3f3f 293d 84c9 203d 0525 153d b253 113d
000002c0: bd5d 18bd 6b7c 21bd 3c92 263d d304 163d
000002d0: b711 103d 76d9 1d3d fe93 173d 6761 1e3d
000002e0: 8a23 143d 50a8 12bd f4ee 16bd 8815 0c3d
000002f0: 3298 183d 1503 1abd 9432 283d d0b4 133d

action_net.bias f4 [3]
0.037402365 0.0346906 0.035136923
00000000: 3933 193d bb17 0e3d bceb 0f3d

value_net.weight f4 [1, 64]
0.10002797 -0.13399364 -0.15244015 0.002409501 0.058670193 -0.1598909 0.05071597 -0.0033065586
-0.08502142 0.16071042 -0.09189156 0.12198795 -0.20994207 0.018135661 0.015054853 0.010626026
-0.18847454 -0.27574715 0.054505873 0.008376108 0.1902508 0.1604411 -0.057532795 -0.05144306
-0.0063422257 -0.021771405 -0.16941136 0.19715784 -0.038017962 0.0808627 0.11328468 -0.20184906
0.023562854 -0.11416006 0.059784926 -0.029101426 -0.09161819 -0.06859022 0.09357739 0.03798418
0.030608397 -0.060568683 0.23496251 0.07397212 -0.057221167 -0.19071771 -0.14374283 -0.10537318
-0.19201447 -0.001778392 0.026429672 0.005694276 0.1262375 0.025050063 -0.032911886 0.034116406
0.04735338 -0.3553283 -0.0819639 0.052912492 0.00500123 0.09178089 0.010361524 -0.035983108
00000000: 77db cc3d a135 09be 4519 1cbe b8e8 1d3b
00000010: 2850 703d 71ba 23be 8dbb 4f3d d9b2 58bb
00000020: b61f aebd 4691 243e a431 bcbd d1d4 f93d
00000030: 0efb 56be 3d91 943c a1a8 763c c918 2e3c
00000040: 78ff 40be bb2e 8dbe 8d41 5f3d f13b 093c
00000050: 1bd1 423e ac4a 243e 82a7 6bbd f5b5 52bd
00000060: 72d2 cfbb f259 b2bc 2c7a 2dbe bfe3 493e
00000070: b9b8 1bbd 589b a53d cc01 e83d 85b1 4ebe
00000080: e306 c13c c0cc e9bd 0ae1 743d 1d66 eebc
00000090: 51a2 bbbd 0779 8cbd 81a5 bf3d 4d95 1b3d
000000a0: 76be fa3c de16 78bd 039a 703e b27e 973d
000000b0: be60 6abd 814b 43be 5231 13be e5cd d7bd
000000c0: 719f 44be ef18 e9ba 0a83 d83c 0d97 ba3b
000000d0: 6744 013e ca35 cd3c 9dce 06bd a5bd 0b3d
000000e0: 9ef5 413d 97ed b5be b0dc a7bd c5ba 583d
000000f0: 5ce1 a33b 9ff7 bb3d 62c3 293c 0663 13bd
